…
    "text": "Create a Normal UNet\n\nnormal_unet_model = unet_model(\n    input_size=(h, w, c),\n    filter_list=filter_list,\n    n_classes=n_classes\n)\n\n\nprint(normal_unet_model.summary())\n\nModel: \"model_1\"\n__________________________________________________________________________________________________\n Layer (type)                Output Shape                 Param #   Connected to                  \n==================================================================================================\n input_4 (InputLayer)        [(None, 1152, 1632, 1)]      0         []                            \n                                                                                                  \n conv2d_21 (Conv2D)          (None, 1152, 1632, 64)       640       ['input_4[0][0]']             \n                                                                                                  \n batch_normalization_18 (Ba  (None, 1152, 1632, 64)       256       ['conv2d_21[0][0]']           \n tchNormalization)                                                                                \n                                                                                                  \n activation_18 (Activation)  (None, 1152, 1632, 64)       0         ['batch_normalization_18[0][0]\n                                                                    ']                            \n                                                                                                  \n dropout_18 (Dropout)        (None, 1152, 1632, 64)       0         ['activation_18[0][0]']       \n                                                                                                  \n conv2d_22 (Conv2D)          (None, 1152, 1632, 64)       36928     ['dropout_18[0][0]']          \n                                                                                                  \n batch_normalization_19 (Ba  (None, 1152, 1632, 64)       256       ['conv2d_22[0][0]']           \n tchNormalization)                                                                                \n                                                                                                  \n activation_19 (Activation)  (None, 1152, 1632, 64)       0         ['batch_normalization_19[0][0]\n                                                                    ']                            \n                                                                                                  \n dropout_19 (Dropout)        (None, 1152, 1632, 64)       0         ['activation_19[0][0]']       \n                                                                                                  \n max_pooling2d_4 (MaxPoolin  (None, 576, 816, 64)         0         ['dropout_19[0][0]']          \n g2D)                                                                                             \n                                                                                                  \n average_pooling2d_4 (Avera  (None, 576, 816, 64)         0         ['dropout_19[0][0]']          \n gePooling2D)                                                                                     \n                                                                                                  \n concatenate_8 (Concatenate  (None, 576, 816, 128)        0         ['max_pooling2d_4[0][0]',     \n )                                                                   'average_pooling2d_4[0][0]'] \n                                                                                                  \n conv2d_23 (Conv2D)          (None, 576, 816, 128)        147584    ['concatenate_8[0][0]']       \n                                                                                                  \n batch_normalization_20 (Ba  (None, 576, 816, 128)        512       ['conv2d_23[0][0]']           \n tchNormalization)                                                                                \n                                                                                                  \n activation_20 (Activation)  (None, 576, 816, 128)        0         ['batch_normalization_20[0][0]\n                                                                    ']                            \n                                                                                                  \n dropout_20 (Dropout)        (None, 576, 816, 128)        0         ['activation_20[0][0]']       \n                                                                                                  \n conv2d_24 (Conv2D)          (None, 576, 816, 128)        147584    ['dropout_20[0][0]']          \n                                                                                                  \n batch_normalization_21 (Ba  (None, 576, 816, 128)        512       ['conv2d_24[0][0]']           \n tchNormalization)                                                                                \n                                                                                                  \n activation_21 (Activation)  (None, 576, 816, 128)        0         ['batch_normalization_21[0][0]\n                                                                    ']                            \n                                                                                                  \n dropout_21 (Dropout)        (None, 576, 816, 128)        0         ['activation_21[0][0]']       \n                                                                                                  \n max_pooling2d_5 (MaxPoolin  (None, 288, 408, 128)        0         ['dropout_21[0][0]']          \n g2D)                                                                                             \n                                                                                                  \n average_pooling2d_5 (Avera  (None, 288, 408, 128)        0         ['dropout_21[0][0]']          \n gePooling2D)                                                                                     \n                                                                                                  \n concatenate_9 (Concatenate  (None, 288, 408, 256)        0         ['max_pooling2d_5[0][0]',     \n )                                                                   'average_pooling2d_5[0][0]'] \n                                                                                                  \n conv2d_25 (Conv2D)          (None, 288, 408, 256)        590080    ['concatenate_9[0][0]']       \n                                                                                                  \n batch_normalization_22 (Ba  (None, 288, 408, 256)        1024      ['conv2d_25[0][0]']           \n tchNormalization)                                                                                \n                                                                                                  \n activation_22 (Activation)  (None, 288, 408, 256)        0         ['batch_normalization_22[0][0]\n                                                                    ']                            \n                                                                                                  \n dropout_22 (Dropout)        (None, 288, 408, 256)        0         ['activation_22[0][0]']       \n                                                                                                  \n conv2d_26 (Conv2D)          (None, 288, 408, 256)        590080    ['dropout_22[0][0]']          \n                                                                                                  \n batch_normalization_23 (Ba  (None, 288, 408, 256)        1024      ['conv2d_26[0][0]']           \n tchNormalization)                                                                                \n                                                                                                  \n activation_23 (Activation)  (None, 288, 408, 256)        0         ['batch_normalization_23[0][0]\n                                                                    ']                            \n                                                                                                  \n dropout_23 (Dropout)        (None, 288, 408, 256)        0         ['activation_23[0][0]']       \n                                                                                                  \n max_pooling2d_6 (MaxPoolin  (None, 144, 204, 256)        0         ['dropout_23[0][0]']          \n g2D)                                                                                             \n                                                                                                  \n average_pooling2d_6 (Avera  (None, 144, 204, 256)        0         ['dropout_23[0][0]']          \n gePooling2D)                                                                                     \n                                                                                                  \n concatenate_10 (Concatenat  (None, 144, 204, 512)        0         ['max_pooling2d_6[0][0]',     \n e)                                                                  'average_pooling2d_6[0][0]'] \n                                                                                                  \n conv2d_27 (Conv2D)          (None, 144, 204, 512)        2359808   ['concatenate_10[0][0]']      \n                                                                                                  \n batch_normalization_24 (Ba  (None, 144, 204, 512)        2048      ['conv2d_27[0][0]']           \n tchNormalization)                                                                                \n                                                                                                  \n activation_24 (Activation)  (None, 144, 204, 512)        0         ['batch_normalization_24[0][0]\n                                                                    ']                            \n                                                                                                  \n dropout_24 (Dropout)        (None, 144, 204, 512)        0         ['activation_24[0][0]']       \n                                                                                                  \n conv2d_28 (Conv2D)          (None, 144, 204, 512)        2359808   ['dropout_24[0][0]']          \n                                                                                                  \n batch_normalization_25 (Ba  (None, 144, 204, 512)        2048      ['conv2d_28[0][0]']           \n tchNormalization)                                                                                \n                                                                                                  \n activation_25 (Activation)  (None, 144, 204, 512)        0         ['batch_normalization_25[0][0]\n                                                                    ']                            \n                                                                                                  \n dropout_25 (Dropout)        (None, 144, 204, 512)        0         ['activation_25[0][0]']       \n                                                                                                  \n max_pooling2d_7 (MaxPoolin  (None, 72, 102, 512)         0         ['dropout_25[0][0]']          \n g2D)                                                                                             \n                                                                                                  \n average_pooling2d_7 (Avera  (None, 72, 102, 512)         0         ['dropout_25[0][0]']          \n gePooling2D)                                                                                     \n                                                                                                  \n concatenate_11 (Concatenat  (None, 72, 102, 1024)        0         ['max_pooling2d_7[0][0]',     \n e)                                                                  'average_pooling2d_7[0][0]'] \n                                                                                                  \n conv2d_29 (Conv2D)          (None, 72, 102, 1024)        9438208   ['concatenate_11[0][0]']      \n                                                                                                  \n batch_normalization_26 (Ba  (None, 72, 102, 1024)        4096      ['conv2d_29[0][0]']           \n tchNormalization)                                                                                \n                                                                                                  \n activation_26 (Activation)  (None, 72, 102, 1024)        0         ['batch_normalization_26[0][0]\n                                                                    ']                            \n                                                                                                  \n dropout_26 (Dropout)        (None, 72, 102, 1024)        0         ['activation_26[0][0]']       \n                                                                                                  \n conv2d_30 (Conv2D)          (None, 72, 102, 1024)        9438208   ['dropout_26[0][0]']          \n                                                                                                  \n batch_normalization_27 (Ba  (None, 72, 102, 1024)        4096      ['conv2d_30[0][0]']           \n tchNormalization)                                                                                \n                                                                                                  \n activation_27 (Activation)  (None, 72, 102, 1024)        0         ['batch_normalization_27[0][0]\n                                                                    ']                            \n                                                                                                  \n dropout_27 (Dropout)        (None, 72, 102, 1024)        0         ['activation_27[0][0]']       \n                                                                                                  \n conv2d_transpose_4 (Conv2D  (None, 144, 204, 512)        2097664   ['dropout_27[0][0]']          \n Transpose)                                                                                       \n                                                                                                  \n concatenate_12 (Concatenat  (None, 144, 204, 1024)       0         ['conv2d_transpose_4[0][0]',  \n e)                                                                  'dropout_25[0][0]']          \n                                                                                                  \n conv2d_31 (Conv2D)          (None, 144, 204, 512)        4719104   ['concatenate_12[0][0]']      \n                                                                                                  \n batch_normalization_28 (Ba  (None, 144, 204, 512)        2048      ['conv2d_31[0][0]']           \n tchNormalization)                                                                                \n                                                                                                  \n activation_28 (Activation)  (None, 144, 204, 512)        0         ['batch_normalization_28[0][0]\n                                                                    ']                            \n                                                                                                  \n dropout_28 (Dropout)        (None, 144, 204, 512)        0         ['activation_28[0][0]']       \n                                                                                                  \n conv2d_32 (Conv2D)          (None, 144, 204, 512)        2359808   ['dropout_28[0][0]']          \n                                                                                                  \n batch_normalization_29 (Ba  (None, 144, 204, 512)        2048      ['conv2d_32[0][0]']           \n tchNormalization)                                                                                \n                                                                                                  \n activation_29 (Activation)  (None, 144, 204, 512)        0         ['batch_normalization_29[0][0]\n                                                                    ']                            \n                                                                                                  \n dropout_29 (Dropout)        (None, 144, 204, 512)        0         ['activation_29[0][0]']       \n                                                                                                  \n conv2d_transpose_5 (Conv2D  (None, 288, 408, 256)        524544    ['dropout_29[0][0]']          \n Transpose)                                                                                       \n                                                                                                  \n concatenate_13 (Concatenat  (None, 288, 408, 512)        0         ['conv2d_transpose_5[0][0]',  \n e)                                                                  'dropout_23[0][0]']          \n                                                                                                  \n conv2d_33 (Conv2D)          (None, 288, 408, 256)        1179904   ['concatenate_13[0][0]']      \n                                                                                                  \n batch_normalization_30 (Ba  (None, 288, 408, 256)        1024      ['conv2d_33[0][0]']           \n tchNormalization)                                                                                \n                                                                                                  \n activation_30 (Activation)  (None, 288, 408, 256)        0         ['batch_normalization_30[0][0]\n                                                                    ']                            \n                                                                                                  \n dropout_30 (Dropout)        (None, 288, 408, 256)        0         ['activation_30[0][0]']       \n                                                                                                  \n conv2d_34 (Conv2D)          (None, 288, 408, 256)        590080    ['dropout_30[0][0]']          \n                                                                                                  \n batch_normalization_31 (Ba  (None, 288, 408, 256)        1024      ['conv2d_34[0][0]']           \n tchNormalization)                                                                                \n                                                                                                  \n activation_31 (Activation)  (None, 288, 408, 256)        0         ['batch_normalization_31[0][0]\n                                                                    ']                            \n                                                                                                  \n dropout_31 (Dropout)        (None, 288, 408, 256)        0         ['activation_31[0][0]']       \n                                                                                                  \n conv2d_transpose_6 (Conv2D  (None, 576, 816, 128)        131200    ['dropout_31[0][0]']          \n Transpose)                                                                                       \n                                                                                                  \n concatenate_14 (Concatenat  (None, 576, 816, 256)        0         ['conv2d_transpose_6[0][0]',  \n e)                                                                  'dropout_21[0][0]']          \n                                                                                                  \n conv2d_35 (Conv2D)          (None, 576, 816, 128)        295040    ['concatenate_14[0][0]']      \n                                                                                                  \n batch_normalization_32 (Ba  (None, 576, 816, 128)        512       ['conv2d_35[0][0]']           \n tchNormalization)                                                                                \n                                                                                                  \n activation_32 (Activation)  (None, 576, 816, 128)        0         ['batch_normalization_32[0][0]\n                                                                    ']                            \n                                                                                                  \n dropout_32 (Dropout)        (None, 576, 816, 128)        0         ['activation_32[0][0]']       \n                                                                                                  \n conv2d_36 (Conv2D)          (None, 576, 816, 128)        147584    ['dropout_32[0][0]']          \n                                                                                                  \n batch_normalization_33 (Ba  (None, 576, 816, 128)        512       ['conv2d_36[0][0]']           \n tchNormalization)                                                                                \n                                                                                                  \n activation_33 (Activation)  (None, 576, 816, 128)        0         ['batch_normalization_33[0][0]\n                                                                    ']                            \n                                                                                                  \n dropout_33 (Dropout)        (None, 576, 816, 128)        0         ['activation_33[0][0]']       \n                                                                                                  \n conv2d_transpose_7 (Conv2D  (None, 1152, 1632, 64)       32832     ['dropout_33[0][0]']          \n Transpose)                                                                                       \n                                                                                                  \n concatenate_15 (Concatenat  (None, 1152, 1632, 128)      0         ['conv2d_transpose_7[0][0]',  \n e)                                                                  'dropout_19[0][0]']          \n                                                                                                  \n conv2d_37 (Conv2D)          (None, 1152, 1632, 64)       73792     ['concatenate_15[0][0]']      \n                                                                                                  \n batch_normalization_34 (Ba  (None, 1152, 1632, 64)       256       ['conv2d_37[0][0]']           \n tchNormalization)                                                                                \n                                                                                                  \n activation_34 (Activation)  (None, 1152, 1632, 64)       0         ['batch_normalization_34[0][0]\n                                                                    ']                            \n                                                                                                  \n dropout_34 (Dropout)        (None, 1152, 1632, 64)       0         ['activation_34[0][0]']       \n                                                                                                  \n conv2d_38 (Conv2D)          (None, 1152, 1632, 64)       36928     ['dropout_34[0][0]']          \n                                                                                                  \n batch_normalization_35 (Ba  (None, 1152, 1632, 64)       256       ['conv2d_38[0][0]']           \n tchNormalization)                                                                                \n                                                                                                  \n activation_35 (Activation)  (None, 1152, 1632, 64)       0         ['batch_normalization_35[0][0]\n                                                                    ']                            \n                                                                                                  \n dropout_35 (Dropout)        (None, 1152, 1632, 64)       0         ['activation_35[0][0]']       \n                                                                                                  \n conv2d_39 (Conv2D)          (None, 1152, 1632, 1)        65        ['dropout_35[0][0]']          \n                                                                                                  \n==================================================================================================\nTotal params: 37321025 (142.37 MB)\nTrainable params: 37309249 (142.32 MB)\nNon-trainable params: 11776 (46.00 KB)\n__________________________________________________________________________________________________\nNone"
…
    "text": "Create a U-Net with Attention\n\nattn_unet_model = unet_model_attention_gates(\n    input_size=(h, w, c),\n    filter_list=filter_list,\n    n_classes=n_classes\n)\n\n\nprint(attn_unet_model.summary())\n\nModel: \"model_2\"\n__________________________________________________________________________________________________\n Layer (type)                Output Shape                 Param #   Connected to                  \n==================================================================================================\n input_5 (InputLayer)        [(None, 1152, 1632, 1)]      0         []                            \n                                                                                                  \n conv2d_40 (Conv2D)          (None, 1152, 1632, 64)       640       ['input_5[0][0]']             \n                                                                                                  \n batch_normalization_36 (Ba  (None, 1152, 1632, 64)       256       ['conv2d_40[0][0]']           \n tchNormalization)                                                                                \n                                                                                                  \n activation_36 (Activation)  (None, 1152, 1632, 64)       0         ['batch_normalization_36[0][0]\n                                                                    ']                            \n                                                                                                  \n dropout_36 (Dropout)        (None, 1152, 1632, 64)       0         ['activation_36[0][0]']       \n                                                                                                  \n conv2d_41 (Conv2D)          (None, 1152, 1632, 64)       36928     ['dropout_36[0][0]']          \n                                                                                                  \n batch_normalization_37 (Ba  (None, 1152, 1632, 64)       256       ['conv2d_41[0][0]']           \n tchNormalization)                                                                                \n                                                                                                  \n activation_37 (Activation)  (None, 1152, 1632, 64)       0         ['batch_normalization_37[0][0]\n                                                                    ']                            \n                                                                                                  \n dropout_37 (Dropout)        (None, 1152, 1632, 64)       0         ['activation_37[0][0]']       \n                                                                                                  \n max_pooling2d_8 (MaxPoolin  (None, 576, 816, 64)         0         ['dropout_37[0][0]']          \n g2D)                                                                                             \n                                                                                                  \n average_pooling2d_8 (Avera  (None, 576, 816, 64)         0         ['dropout_37[0][0]']          \n gePooling2D)                                                                                     \n                                                                                                  \n concatenate_16 (Concatenat  (None, 576, 816, 128)        0         ['max_pooling2d_8[0][0]',     \n e)                                                                  'average_pooling2d_8[0][0]'] \n                                                                                                  \n conv2d_42 (Conv2D)          (None, 576, 816, 128)        147584    ['concatenate_16[0][0]']      \n                                                                                                  \n batch_normalization_38 (Ba  (None, 576, 816, 128)        512       ['conv2d_42[0][0]']           \n tchNormalization)                                                                                \n                                                                                                  \n activation_38 (Activation)  (None, 576, 816, 128)        0         ['batch_normalization_38[0][0]\n                                                                    ']                            \n                                                                                                  \n dropout_38 (Dropout)        (None, 576, 816, 128)        0         ['activation_38[0][0]']       \n                                                                                                  \n conv2d_43 (Conv2D)          (None, 576, 816, 128)        147584    ['dropout_38[0][0]']          \n                                                                                                  \n batch_normalization_39 (Ba  (None, 576, 816, 128)        512       ['conv2d_43[0][0]']           \n tchNormalization)                                                                                \n                                                                                                  \n activation_39 (Activation)  (None, 576, 816, 128)        0         ['batch_normalization_39[0][0]\n                                                                    ']                            \n                                                                                                  \n dropout_39 (Dropout)        (None, 576, 816, 128)        0         ['activation_39[0][0]']       \n                                                                                                  \n max_pooling2d_9 (MaxPoolin  (None, 288, 408, 128)        0         ['dropout_39[0][0]']          \n g2D)                                                                                             \n                                                                                                  \n average_pooling2d_9 (Avera  (None, 288, 408, 128)        0         ['dropout_39[0][0]']          \n gePooling2D)                                                                                     \n                                                                                                  \n concatenate_17 (Concatenat  (None, 288, 408, 256)        0         ['max_pooling2d_9[0][0]',     \n e)                                                                  'average_pooling2d_9[0][0]'] \n                                                                                                  \n conv2d_44 (Conv2D)          (None, 288, 408, 256)        590080    ['concatenate_17[0][0]']      \n                                                                                                  \n batch_normalization_40 (Ba  (None, 288, 408, 256)        1024      ['conv2d_44[0][0]']           \n tchNormalization)                                                                                \n                                                                                                  \n activation_40 (Activation)  (None, 288, 408, 256)        0         ['batch_normalization_40[0][0]\n                                                                    ']                            \n                                                                                                  \n dropout_40 (Dropout)        (None, 288, 408, 256)        0         ['activation_40[0][0]']       \n                                                                                                  \n conv2d_45 (Conv2D)          (None, 288, 408, 256)        590080    ['dropout_40[0][0]']          \n                                                                                                  \n batch_normalization_41 (Ba  (None, 288, 408, 256)        1024      ['conv2d_45[0][0]']           \n tchNormalization)                                                                                \n                                                                                                  \n activation_41 (Activation)  (None, 288, 408, 256)        0         ['batch_normalization_41[0][0]\n                                                                    ']                            \n                                                                                                  \n dropout_41 (Dropout)        (None, 288, 408, 256)        0         ['activation_41[0][0]']       \n                                                                                                  \n max_pooling2d_10 (MaxPooli  (None, 144, 204, 256)        0         ['dropout_41[0][0]']          \n ng2D)                                                                                            \n                                                                                                  \n average_pooling2d_10 (Aver  (None, 144, 204, 256)        0         ['dropout_41[0][0]']          \n agePooling2D)                                                                                    \n                                                                                                  \n concatenate_18 (Concatenat  (None, 144, 204, 512)        0         ['max_pooling2d_10[0][0]',    \n e)                                                                  'average_pooling2d_10[0][0]']\n                                                                                                  \n conv2d_46 (Conv2D)          (None, 144, 204, 512)        2359808   ['concatenate_18[0][0]']      \n                                                                                                  \n batch_normalization_42 (Ba  (None, 144, 204, 512)        2048      ['conv2d_46[0][0]']           \n tchNormalization)                                                                                \n                                                                                                  \n activation_42 (Activation)  (None, 144, 204, 512)        0         ['batch_normalization_42[0][0]\n                                                                    ']                            \n                                                                                                  \n dropout_42 (Dropout)        (None, 144, 204, 512)        0         ['activation_42[0][0]']       \n                                                                                                  \n conv2d_47 (Conv2D)          (None, 144, 204, 512)        2359808   ['dropout_42[0][0]']          \n                                                                                                  \n batch_normalization_43 (Ba  (None, 144, 204, 512)        2048      ['conv2d_47[0][0]']           \n tchNormalization)                                                                                \n                                                                                                  \n activation_43 (Activation)  (None, 144, 204, 512)        0         ['batch_normalization_43[0][0]\n                                                                    ']                            \n                                                                                                  \n dropout_43 (Dropout)        (None, 144, 204, 512)        0         ['activation_43[0][0]']       \n                                                                                                  \n max_pooling2d_11 (MaxPooli  (None, 72, 102, 512)         0         ['dropout_43[0][0]']          \n ng2D)                                                                                            \n                                                                                                  \n average_pooling2d_11 (Aver  (None, 72, 102, 512)         0         ['dropout_43[0][0]']          \n agePooling2D)                                                                                    \n                                                                                                  \n concatenate_19 (Concatenat  (None, 72, 102, 1024)        0         ['max_pooling2d_11[0][0]',    \n e)                                                                  'average_pooling2d_11[0][0]']\n                                                                                                  \n conv2d_48 (Conv2D)          (None, 72, 102, 1024)        9438208   ['concatenate_19[0][0]']      \n                                                                                                  \n batch_normalization_44 (Ba  (None, 72, 102, 1024)        4096      ['conv2d_48[0][0]']           \n tchNormalization)                                                                                \n                                                                                                  \n activation_44 (Activation)  (None, 72, 102, 1024)        0         ['batch_normalization_44[0][0]\n                                                                    ']                            \n                                                                                                  \n dropout_44 (Dropout)        (None, 72, 102, 1024)        0         ['activation_44[0][0]']       \n                                                                                                  \n conv2d_49 (Conv2D)          (None, 72, 102, 1024)        9438208   ['dropout_44[0][0]']          \n                                                                                                  \n batch_normalization_45 (Ba  (None, 72, 102, 1024)        4096      ['conv2d_49[0][0]']           \n tchNormalization)                                                                                \n                                                                                                  \n activation_45 (Activation)  (None, 72, 102, 1024)        0         ['batch_normalization_45[0][0]\n                                                                    ']                            \n                                                                                                  \n dropout_45 (Dropout)        (None, 72, 102, 1024)        0         ['activation_45[0][0]']       \n                                                                                                  \n gating_signal0_conv (Conv2  (None, 72, 102, 512)         524800    ['dropout_45[0][0]']          \n D)                                                                                               \n                                                                                                  \n gating_signal0_bn (BatchNo  (None, 72, 102, 512)         2048      ['gating_signal0_conv[0][0]'] \n rmalization)                                                                                     \n                                                                                                  \n gating_signal0_act (Activa  (None, 72, 102, 512)         0         ['gating_signal0_bn[0][0]']   \n tion)                                                                                            \n                                                                                                  \n conv2d_50 (Conv2D)          (None, 72, 102, 512)         262656    ['gating_signal0_act[0][0]']  \n                                                                                                  \n g_upattention_block0 (Conv  (None, 72, 102, 512)         2359808   ['conv2d_50[0][0]']           \n 2DTranspose)                                                                                     \n                                                                                                  \n xlattention_block0 (Conv2D  (None, 72, 102, 512)         1049088   ['dropout_43[0][0]']          \n )                                                                                                \n                                                                                                  \n add (Add)                   (None, 72, 102, 512)         0         ['g_upattention_block0[0][0]',\n                                                                     'xlattention_block0[0][0]']  \n                                                                                                  \n activation_46 (Activation)  (None, 72, 102, 512)         0         ['add[0][0]']                 \n                                                                                                  \n psiattention_block0 (Conv2  (None, 72, 102, 1)           513       ['activation_46[0][0]']       \n D)                                                                                               \n                                                                                                  \n activation_47 (Activation)  (None, 72, 102, 1)           0         ['psiattention_block0[0][0]'] \n                                                                                                  \n up_sampling2d (UpSampling2  (None, 144, 204, 1)          0         ['activation_47[0][0]']       \n D)                                                                                               \n                                                                                                  \n psi_upattention_block0 (La  (None, 144, 204, 512)        0         ['up_sampling2d[0][0]']       \n mbda)                                                                                            \n                                                                                                  \n q_attnattention_block0 (Mu  (None, 144, 204, 512)        0         ['psi_upattention_block0[0][0]\n ltiply)                                                            ',                            \n                                                                     'dropout_43[0][0]']          \n                                                                                                  \n q_attn_convattention_block  (None, 144, 204, 512)        262656    ['q_attnattention_block0[0][0]\n 0 (Conv2D)                                                         ']                            \n                                                                                                  \n upsampling_0 (UpSampling2D  (None, 144, 204, 1024)       0         ['dropout_45[0][0]']          \n )                                                                                                \n                                                                                                  \n q_attn_bnattention_block0   (None, 144, 204, 512)        2048      ['q_attn_convattention_block0[\n (BatchNormalization)                                               0][0]']                       \n                                                                                                  \n concatenate_20 (Concatenat  (None, 144, 204, 1536)       0         ['upsampling_0[0][0]',        \n e)                                                                  'q_attn_bnattention_block0[0]\n                                                                    [0]']                         \n                                                                                                  \n conv2d_51 (Conv2D)          (None, 144, 204, 512)        7078400   ['concatenate_20[0][0]']      \n                                                                                                  \n batch_normalization_46 (Ba  (None, 144, 204, 512)        2048      ['conv2d_51[0][0]']           \n tchNormalization)                                                                                \n                                                                                                  \n activation_48 (Activation)  (None, 144, 204, 512)        0         ['batch_normalization_46[0][0]\n                                                                    ']                            \n                                                                                                  \n dropout_46 (Dropout)        (None, 144, 204, 512)        0         ['activation_48[0][0]']       \n                                                                                                  \n conv2d_52 (Conv2D)          (None, 144, 204, 512)        2359808   ['dropout_46[0][0]']          \n                                                                                                  \n batch_normalization_47 (Ba  (None, 144, 204, 512)        2048      ['conv2d_52[0][0]']           \n tchNormalization)                                                                                \n                                                                                                  \n activation_49 (Activation)  (None, 144, 204, 512)        0         ['batch_normalization_47[0][0]\n                                                                    ']                            \n                                                                                                  \n dropout_47 (Dropout)        (None, 144, 204, 512)        0         ['activation_49[0][0]']       \n                                                                                                  \n gating_signal1_conv (Conv2  (None, 144, 204, 256)        131328    ['dropout_47[0][0]']          \n D)                                                                                               \n                                                                                                  \n gating_signal1_bn (BatchNo  (None, 144, 204, 256)        1024      ['gating_signal1_conv[0][0]'] \n rmalization)                                                                                     \n                                                                                                  \n gating_signal1_act (Activa  (None, 144, 204, 256)        0         ['gating_signal1_bn[0][0]']   \n tion)                                                                                            \n                                                                                                  \n conv2d_53 (Conv2D)          (None, 144, 204, 256)        65792     ['gating_signal1_act[0][0]']  \n                                                                                                  \n g_upattention_block1 (Conv  (None, 144, 204, 256)        590080    ['conv2d_53[0][0]']           \n 2DTranspose)                                                                                     \n                                                                                                  \n xlattention_block1 (Conv2D  (None, 144, 204, 256)        262400    ['dropout_41[0][0]']          \n )                                                                                                \n                                                                                                  \n add_1 (Add)                 (None, 144, 204, 256)        0         ['g_upattention_block1[0][0]',\n                                                                     'xlattention_block1[0][0]']  \n                                                                                                  \n activation_50 (Activation)  (None, 144, 204, 256)        0         ['add_1[0][0]']               \n                                                                                                  \n psiattention_block1 (Conv2  (None, 144, 204, 1)          257       ['activation_50[0][0]']       \n D)                                                                                               \n                                                                                                  \n activation_51 (Activation)  (None, 144, 204, 1)          0         ['psiattention_block1[0][0]'] \n                                                                                                  \n up_sampling2d_1 (UpSamplin  (None, 288, 408, 1)          0         ['activation_51[0][0]']       \n g2D)                                                                                             \n                                                                                                  \n psi_upattention_block1 (La  (None, 288, 408, 256)        0         ['up_sampling2d_1[0][0]']     \n mbda)                                                                                            \n                                                                                                  \n q_attnattention_block1 (Mu  (None, 288, 408, 256)        0         ['psi_upattention_block1[0][0]\n ltiply)                                                            ',                            \n                                                                     'dropout_41[0][0]']          \n                                                                                                  \n q_attn_convattention_block  (None, 288, 408, 256)        65792     ['q_attnattention_block1[0][0]\n 1 (Conv2D)                                                         ']                            \n                                                                                                  \n upsampling_1 (UpSampling2D  (None, 288, 408, 512)        0         ['dropout_47[0][0]']          \n )                                                                                                \n                                                                                                  \n q_attn_bnattention_block1   (None, 288, 408, 256)        1024      ['q_attn_convattention_block1[\n (BatchNormalization)                                               0][0]']                       \n                                                                                                  \n concatenate_21 (Concatenat  (None, 288, 408, 768)        0         ['upsampling_1[0][0]',        \n e)                                                                  'q_attn_bnattention_block1[0]\n                                                                    [0]']                         \n                                                                                                  \n conv2d_54 (Conv2D)          (None, 288, 408, 256)        1769728   ['concatenate_21[0][0]']      \n                                                                                                  \n batch_normalization_48 (Ba  (None, 288, 408, 256)        1024      ['conv2d_54[0][0]']           \n tchNormalization)                                                                                \n                                                                                                  \n activation_52 (Activation)  (None, 288, 408, 256)        0         ['batch_normalization_48[0][0]\n                                                                    ']                            \n                                                                                                  \n dropout_48 (Dropout)        (None, 288, 408, 256)        0         ['activation_52[0][0]']       \n                                                                                                  \n conv2d_55 (Conv2D)          (None, 288, 408, 256)        590080    ['dropout_48[0][0]']          \n                                                                                                  \n batch_normalization_49 (Ba  (None, 288, 408, 256)        1024      ['conv2d_55[0][0]']           \n tchNormalization)                                                                                \n                                                                                                  \n activation_53 (Activation)  (None, 288, 408, 256)        0         ['batch_normalization_49[0][0]\n                                                                    ']                            \n                                                                                                  \n dropout_49 (Dropout)        (None, 288, 408, 256)        0         ['activation_53[0][0]']       \n                                                                                                  \n gating_signal2_conv (Conv2  (None, 288, 408, 128)        32896     ['dropout_49[0][0]']          \n D)                                                                                               \n                                                                                                  \n gating_signal2_bn (BatchNo  (None, 288, 408, 128)        512       ['gating_signal2_conv[0][0]'] \n rmalization)                                                                                     \n                                                                                                  \n gating_signal2_act (Activa  (None, 288, 408, 128)        0         ['gating_signal2_bn[0][0]']   \n tion)                                                                                            \n                                                                                                  \n conv2d_56 (Conv2D)          (None, 288, 408, 128)        16512     ['gating_signal2_act[0][0]']  \n                                                                                                  \n g_upattention_block2 (Conv  (None, 288, 408, 128)        147584    ['conv2d_56[0][0]']           \n 2DTranspose)                                                                                     \n                                                                                                  \n xlattention_block2 (Conv2D  (None, 288, 408, 128)        65664     ['dropout_39[0][0]']          \n )                                                                                                \n                                                                                                  \n add_2 (Add)                 (None, 288, 408, 128)        0         ['g_upattention_block2[0][0]',\n                                                                     'xlattention_block2[0][0]']  \n                                                                                                  \n activation_54 (Activation)  (None, 288, 408, 128)        0         ['add_2[0][0]']               \n                                                                                                  \n psiattention_block2 (Conv2  (None, 288, 408, 1)          129       ['activation_54[0][0]']       \n D)                                                                                               \n                                                                                                  \n activation_55 (Activation)  (None, 288, 408, 1)          0         ['psiattention_block2[0][0]'] \n                                                                                                  \n up_sampling2d_2 (UpSamplin  (None, 576, 816, 1)          0         ['activation_55[0][0]']       \n g2D)                                                                                             \n                                                                                                  \n psi_upattention_block2 (La  (None, 576, 816, 128)        0         ['up_sampling2d_2[0][0]']     \n mbda)                                                                                            \n                                                                                                  \n q_attnattention_block2 (Mu  (None, 576, 816, 128)        0         ['psi_upattention_block2[0][0]\n ltiply)                                                            ',                            \n                                                                     'dropout_39[0][0]']          \n                                                                                                  \n q_attn_convattention_block  (None, 576, 816, 128)        16512     ['q_attnattention_block2[0][0]\n 2 (Conv2D)                                                         ']                            \n                                                                                                  \n upsampling_2 (UpSampling2D  (None, 576, 816, 256)        0         ['dropout_49[0][0]']          \n )                                                                                                \n                                                                                                  \n q_attn_bnattention_block2   (None, 576, 816, 128)        512       ['q_attn_convattention_block2[\n (BatchNormalization)                                               0][0]']                       \n                                                                                                  \n concatenate_22 (Concatenat  (None, 576, 816, 384)        0         ['upsampling_2[0][0]',        \n e)                                                                  'q_attn_bnattention_block2[0]\n                                                                    [0]']                         \n                                                                                                  \n conv2d_57 (Conv2D)          (None, 576, 816, 128)        442496    ['concatenate_22[0][0]']      \n                                                                                                  \n batch_normalization_50 (Ba  (None, 576, 816, 128)        512       ['conv2d_57[0][0]']           \n tchNormalization)                                                                                \n                                                                                                  \n activation_56 (Activation)  (None, 576, 816, 128)        0         ['batch_normalization_50[0][0]\n                                                                    ']                            \n                                                                                                  \n dropout_50 (Dropout)        (None, 576, 816, 128)        0         ['activation_56[0][0]']       \n                                                                                                  \n conv2d_58 (Conv2D)          (None, 576, 816, 128)        147584    ['dropout_50[0][0]']          \n                                                                                                  \n batch_normalization_51 (Ba  (None, 576, 816, 128)        512       ['conv2d_58[0][0]']           \n tchNormalization)                                                                                \n                                                                                                  \n activation_57 (Activation)  (None, 576, 816, 128)        0         ['batch_normalization_51[0][0]\n                                                                    ']                            \n                                                                                                  \n dropout_51 (Dropout)        (None, 576, 816, 128)        0         ['activation_57[0][0]']       \n                                                                                                  \n gating_signal3_conv (Conv2  (None, 576, 816, 64)         8256      ['dropout_51[0][0]']          \n D)                                                                                               \n                                                                                                  \n gating_signal3_bn (BatchNo  (None, 576, 816, 64)         256       ['gating_signal3_conv[0][0]'] \n rmalization)                                                                                     \n                                                                                                  \n gating_signal3_act (Activa  (None, 576, 816, 64)         0         ['gating_signal3_bn[0][0]']   \n tion)                                                                                            \n                                                                                                  \n conv2d_59 (Conv2D)          (None, 576, 816, 64)         4160      ['gating_signal3_act[0][0]']  \n                                                                                                  \n g_upattention_block3 (Conv  (None, 576, 816, 64)         36928     ['conv2d_59[0][0]']           \n 2DTranspose)                                                                                     \n                                                                                                  \n xlattention_block3 (Conv2D  (None, 576, 816, 64)         16448     ['dropout_37[0][0]']          \n )                                                                                                \n                                                                                                  \n add_3 (Add)                 (None, 576, 816, 64)         0         ['g_upattention_block3[0][0]',\n                                                                     'xlattention_block3[0][0]']  \n                                                                                                  \n activation_58 (Activation)  (None, 576, 816, 64)         0         ['add_3[0][0]']               \n                                                                                                  \n psiattention_block3 (Conv2  (None, 576, 816, 1)          65        ['activation_58[0][0]']       \n D)                                                                                               \n                                                                                                  \n activation_59 (Activation)  (None, 576, 816, 1)          0         ['psiattention_block3[0][0]'] \n                                                                                                  \n up_sampling2d_3 (UpSamplin  (None, 1152, 1632, 1)        0         ['activation_59[0][0]']       \n g2D)                                                                                             \n                                                                                                  \n psi_upattention_block3 (La  (None, 1152, 1632, 64)       0         ['up_sampling2d_3[0][0]']     \n mbda)                                                                                            \n                                                                                                  \n q_attnattention_block3 (Mu  (None, 1152, 1632, 64)       0         ['psi_upattention_block3[0][0]\n ltiply)                                                            ',                            \n                                                                     'dropout_37[0][0]']          \n                                                                                                  \n q_attn_convattention_block  (None, 1152, 1632, 64)       4160      ['q_attnattention_block3[0][0]\n 3 (Conv2D)                                                         ']                            \n                                                                                                  \n upsampling_3 (UpSampling2D  (None, 1152, 1632, 128)      0         ['dropout_51[0][0]']          \n )                                                                                                \n                                                                                                  \n q_attn_bnattention_block3   (None, 1152, 1632, 64)       256       ['q_attn_convattention_block3[\n (BatchNormalization)                                               0][0]']                       \n                                                                                                  \n concatenate_23 (Concatenat  (None, 1152, 1632, 192)      0         ['upsampling_3[0][0]',        \n e)                                                                  'q_attn_bnattention_block3[0]\n                                                                    [0]']                         \n                                                                                                  \n conv2d_60 (Conv2D)          (None, 1152, 1632, 64)       110656    ['concatenate_23[0][0]']      \n                                                                                                  \n batch_normalization_52 (Ba  (None, 1152, 1632, 64)       256       ['conv2d_60[0][0]']           \n tchNormalization)                                                                                \n                                                                                                  \n activation_60 (Activation)  (None, 1152, 1632, 64)       0         ['batch_normalization_52[0][0]\n                                                                    ']                            \n                                                                                                  \n dropout_52 (Dropout)        (None, 1152, 1632, 64)       0         ['activation_60[0][0]']       \n                                                                                                  \n conv2d_61 (Conv2D)          (None, 1152, 1632, 64)       36928     ['dropout_52[0][0]']          \n                                                                                                  \n batch_normalization_53 (Ba  (None, 1152, 1632, 64)       256       ['conv2d_61[0][0]']           \n tchNormalization)                                                                                \n                                                                                                  \n activation_61 (Activation)  (None, 1152, 1632, 64)       0         ['batch_normalization_53[0][0]\n                                                                    ']                            \n                                                                                                  \n dropout_53 (Dropout)        (None, 1152, 1632, 64)       0         ['activation_61[0][0]']       \n                                                                                                  \n conv2d_62 (Conv2D)          (None, 1152, 1632, 1)        65        ['dropout_53[0][0]']          \n                                                                                                  \n==================================================================================================\nTotal params: 43600389 (166.32 MB)\nTrainable params: 43584773 (166.26 MB)\nNon-trainable params: 15616 (61.00 KB)\n__________________________________________________________________________________________________\nNone"
…
    "text": "Create a U-Net model with attention gates and residual connections\n\nres_attn_unet_model = residual_attn_unet(\n    input_size=(h, w, c),\n    filter_list=filter_list,\n    n_classes=n_classes\n)\nprint(res_attn_unet_model.summary())\n\nModel: \"model_3\"\n__________________________________________________________________________________________________\n Layer (type)                Output Shape                 Param #   Connected to                  \n==================================================================================================\n input_6 (InputLayer)        [(None, 1152, 1632, 1)]      0         []                            \n                                                                                                  \n conv2d_63 (Conv2D)          (None, 1152, 1632, 64)       640       ['input_6[0][0]']             \n                                                                                                  \n batch_normalization_54 (Ba  (None, 1152, 1632, 64)       256       ['conv2d_63[0][0]']           \n tchNormalization)                                                                                \n                                                                                                  \n activation_62 (Activation)  (None, 1152, 1632, 64)       0         ['batch_normalization_54[0][0]\n                                                                    ']                            \n                                                                                                  \n dropout_54 (Dropout)        (None, 1152, 1632, 64)       0         ['activation_62[0][0]']       \n                                                                                                  \n conv2d_64 (Conv2D)          (None, 1152, 1632, 64)       36928     ['dropout_54[0][0]']          \n                                                                                                  \n conv2d_65 (Conv2D)          (None, 1152, 1632, 64)       128       ['input_6[0][0]']             \n                                                                                                  \n batch_normalization_55 (Ba  (None, 1152, 1632, 64)       256       ['conv2d_64[0][0]']           \n tchNormalization)                                                                                \n                                                                                                  \n batch_normalization_56 (Ba  (None, 1152, 1632, 64)       256       ['conv2d_65[0][0]']           \n tchNormalization)                                                                                \n                                                                                                  \n dropout_55 (Dropout)        (None, 1152, 1632, 64)       0         ['batch_normalization_55[0][0]\n                                                                    ']                            \n                                                                                                  \n add_4 (Add)                 (None, 1152, 1632, 64)       0         ['batch_normalization_56[0][0]\n                                                                    ',                            \n                                                                     'dropout_55[0][0]']          \n                                                                                                  \n activation_63 (Activation)  (None, 1152, 1632, 64)       0         ['add_4[0][0]']               \n                                                                                                  \n max_pooling2d_12 (MaxPooli  (None, 576, 816, 64)         0         ['activation_63[0][0]']       \n ng2D)                                                                                            \n                                                                                                  \n average_pooling2d_12 (Aver  (None, 576, 816, 64)         0         ['activation_63[0][0]']       \n agePooling2D)                                                                                    \n                                                                                                  \n concatenate_24 (Concatenat  (None, 576, 816, 128)        0         ['max_pooling2d_12[0][0]',    \n e)                                                                  'average_pooling2d_12[0][0]']\n                                                                                                  \n conv2d_66 (Conv2D)          (None, 576, 816, 128)        147584    ['concatenate_24[0][0]']      \n                                                                                                  \n batch_normalization_57 (Ba  (None, 576, 816, 128)        512       ['conv2d_66[0][0]']           \n tchNormalization)                                                                                \n                                                                                                  \n activation_64 (Activation)  (None, 576, 816, 128)        0         ['batch_normalization_57[0][0]\n                                                                    ']                            \n                                                                                                  \n dropout_56 (Dropout)        (None, 576, 816, 128)        0         ['activation_64[0][0]']       \n                                                                                                  \n conv2d_67 (Conv2D)          (None, 576, 816, 128)        147584    ['dropout_56[0][0]']          \n                                                                                                  \n conv2d_68 (Conv2D)          (None, 576, 816, 128)        16512     ['concatenate_24[0][0]']      \n                                                                                                  \n batch_normalization_58 (Ba  (None, 576, 816, 128)        512       ['conv2d_67[0][0]']           \n tchNormalization)                                                                                \n                                                                                                  \n batch_normalization_59 (Ba  (None, 576, 816, 128)        512       ['conv2d_68[0][0]']           \n tchNormalization)                                                                                \n                                                                                                  \n dropout_57 (Dropout)        (None, 576, 816, 128)        0         ['batch_normalization_58[0][0]\n                                                                    ']                            \n                                                                                                  \n add_5 (Add)                 (None, 576, 816, 128)        0         ['batch_normalization_59[0][0]\n                                                                    ',                            \n                                                                     'dropout_57[0][0]']          \n                                                                                                  \n activation_65 (Activation)  (None, 576, 816, 128)        0         ['add_5[0][0]']               \n                                                                                                  \n max_pooling2d_13 (MaxPooli  (None, 288, 408, 128)        0         ['activation_65[0][0]']       \n ng2D)                                                                                            \n                                                                                                  \n average_pooling2d_13 (Aver  (None, 288, 408, 128)        0         ['activation_65[0][0]']       \n agePooling2D)                                                                                    \n                                                                                                  \n concatenate_25 (Concatenat  (None, 288, 408, 256)        0         ['max_pooling2d_13[0][0]',    \n e)                                                                  'average_pooling2d_13[0][0]']\n                                                                                                  \n conv2d_69 (Conv2D)          (None, 288, 408, 256)        590080    ['concatenate_25[0][0]']      \n                                                                                                  \n batch_normalization_60 (Ba  (None, 288, 408, 256)        1024      ['conv2d_69[0][0]']           \n tchNormalization)                                                                                \n                                                                                                  \n activation_66 (Activation)  (None, 288, 408, 256)        0         ['batch_normalization_60[0][0]\n                                                                    ']                            \n                                                                                                  \n dropout_58 (Dropout)        (None, 288, 408, 256)        0         ['activation_66[0][0]']       \n                                                                                                  \n conv2d_70 (Conv2D)          (None, 288, 408, 256)        590080    ['dropout_58[0][0]']          \n                                                                                                  \n conv2d_71 (Conv2D)          (None, 288, 408, 256)        65792     ['concatenate_25[0][0]']      \n                                                                                                  \n batch_normalization_61 (Ba  (None, 288, 408, 256)        1024      ['conv2d_70[0][0]']           \n tchNormalization)                                                                                \n                                                                                                  \n batch_normalization_62 (Ba  (None, 288, 408, 256)        1024      ['conv2d_71[0][0]']           \n tchNormalization)                                                                                \n                                                                                                  \n dropout_59 (Dropout)        (None, 288, 408, 256)        0         ['batch_normalization_61[0][0]\n                                                                    ']                            \n                                                                                                  \n add_6 (Add)                 (None, 288, 408, 256)        0         ['batch_normalization_62[0][0]\n                                                                    ',                            \n                                                                     'dropout_59[0][0]']          \n                                                                                                  \n activation_67 (Activation)  (None, 288, 408, 256)        0         ['add_6[0][0]']               \n                                                                                                  \n max_pooling2d_14 (MaxPooli  (None, 144, 204, 256)        0         ['activation_67[0][0]']       \n ng2D)                                                                                            \n                                                                                                  \n average_pooling2d_14 (Aver  (None, 144, 204, 256)        0         ['activation_67[0][0]']       \n agePooling2D)                                                                                    \n                                                                                                  \n concatenate_26 (Concatenat  (None, 144, 204, 512)        0         ['max_pooling2d_14[0][0]',    \n e)                                                                  'average_pooling2d_14[0][0]']\n                                                                                                  \n conv2d_72 (Conv2D)          (None, 144, 204, 512)        2359808   ['concatenate_26[0][0]']      \n                                                                                                  \n batch_normalization_63 (Ba  (None, 144, 204, 512)        2048      ['conv2d_72[0][0]']           \n tchNormalization)                                                                                \n                                                                                                  \n activation_68 (Activation)  (None, 144, 204, 512)        0         ['batch_normalization_63[0][0]\n                                                                    ']                            \n                                                                                                  \n dropout_60 (Dropout)        (None, 144, 204, 512)        0         ['activation_68[0][0]']       \n                                                                                                  \n conv2d_73 (Conv2D)          (None, 144, 204, 512)        2359808   ['dropout_60[0][0]']          \n                                                                                                  \n conv2d_74 (Conv2D)          (None, 144, 204, 512)        262656    ['concatenate_26[0][0]']      \n                                                                                                  \n batch_normalization_64 (Ba  (None, 144, 204, 512)        2048      ['conv2d_73[0][0]']           \n tchNormalization)                                                                                \n                                                                                                  \n batch_normalization_65 (Ba  (None, 144, 204, 512)        2048      ['conv2d_74[0][0]']           \n tchNormalization)                                                                                \n                                                                                                  \n dropout_61 (Dropout)        (None, 144, 204, 512)        0         ['batch_normalization_64[0][0]\n                                                                    ']                            \n                                                                                                  \n add_7 (Add)                 (None, 144, 204, 512)        0         ['batch_normalization_65[0][0]\n                                                                    ',                            \n                                                                     'dropout_61[0][0]']          \n                                                                                                  \n activation_69 (Activation)  (None, 144, 204, 512)        0         ['add_7[0][0]']               \n                                                                                                  \n max_pooling2d_15 (MaxPooli  (None, 72, 102, 512)         0         ['activation_69[0][0]']       \n ng2D)                                                                                            \n                                                                                                  \n average_pooling2d_15 (Aver  (None, 72, 102, 512)         0         ['activation_69[0][0]']       \n agePooling2D)                                                                                    \n                                                                                                  \n concatenate_27 (Concatenat  (None, 72, 102, 1024)        0         ['max_pooling2d_15[0][0]',    \n e)                                                                  'average_pooling2d_15[0][0]']\n                                                                                                  \n conv2d_75 (Conv2D)          (None, 72, 102, 1024)        9438208   ['concatenate_27[0][0]']      \n                                                                                                  \n batch_normalization_66 (Ba  (None, 72, 102, 1024)        4096      ['conv2d_75[0][0]']           \n tchNormalization)                                                                                \n                                                                                                  \n activation_70 (Activation)  (None, 72, 102, 1024)        0         ['batch_normalization_66[0][0]\n                                                                    ']                            \n                                                                                                  \n dropout_62 (Dropout)        (None, 72, 102, 1024)        0         ['activation_70[0][0]']       \n                                                                                                  \n conv2d_76 (Conv2D)          (None, 72, 102, 1024)        9438208   ['dropout_62[0][0]']          \n                                                                                                  \n conv2d_77 (Conv2D)          (None, 72, 102, 1024)        1049600   ['concatenate_27[0][0]']      \n                                                                                                  \n batch_normalization_67 (Ba  (None, 72, 102, 1024)        4096      ['conv2d_76[0][0]']           \n tchNormalization)                                                                                \n                                                                                                  \n batch_normalization_68 (Ba  (None, 72, 102, 1024)        4096      ['conv2d_77[0][0]']           \n tchNormalization)                                                                                \n                                                                                                  \n dropout_63 (Dropout)        (None, 72, 102, 1024)        0         ['batch_normalization_67[0][0]\n                                                                    ']                            \n                                                                                                  \n add_8 (Add)                 (None, 72, 102, 1024)        0         ['batch_normalization_68[0][0]\n                                                                    ',                            \n                                                                     'dropout_63[0][0]']          \n                                                                                                  \n activation_71 (Activation)  (None, 72, 102, 1024)        0         ['add_8[0][0]']               \n                                                                                                  \n gating_signal0_conv (Conv2  (None, 72, 102, 512)         524800    ['activation_71[0][0]']       \n D)                                                                                               \n                                                                                                  \n gating_signal0_bn (BatchNo  (None, 72, 102, 512)         2048      ['gating_signal0_conv[0][0]'] \n rmalization)                                                                                     \n                                                                                                  \n gating_signal0_act (Activa  (None, 72, 102, 512)         0         ['gating_signal0_bn[0][0]']   \n tion)                                                                                            \n                                                                                                  \n conv2d_78 (Conv2D)          (None, 72, 102, 512)         262656    ['gating_signal0_act[0][0]']  \n                                                                                                  \n g_upattention_block0 (Conv  (None, 72, 102, 512)         2359808   ['conv2d_78[0][0]']           \n 2DTranspose)                                                                                     \n                                                                                                  \n xlattention_block0 (Conv2D  (None, 72, 102, 512)         1049088   ['activation_69[0][0]']       \n )                                                                                                \n                                                                                                  \n add_9 (Add)                 (None, 72, 102, 512)         0         ['g_upattention_block0[0][0]',\n                                                                     'xlattention_block0[0][0]']  \n                                                                                                  \n activation_72 (Activation)  (None, 72, 102, 512)         0         ['add_9[0][0]']               \n                                                                                                  \n psiattention_block0 (Conv2  (None, 72, 102, 1)           513       ['activation_72[0][0]']       \n D)                                                                                               \n                                                                                                  \n activation_73 (Activation)  (None, 72, 102, 1)           0         ['psiattention_block0[0][0]'] \n                                                                                                  \n up_sampling2d_4 (UpSamplin  (None, 144, 204, 1)          0         ['activation_73[0][0]']       \n g2D)                                                                                             \n                                                                                                  \n psi_upattention_block0 (La  (None, 144, 204, 512)        0         ['up_sampling2d_4[0][0]']     \n mbda)                                                                                            \n                                                                                                  \n q_attnattention_block0 (Mu  (None, 144, 204, 512)        0         ['psi_upattention_block0[0][0]\n ltiply)                                                            ',                            \n                                                                     'activation_69[0][0]']       \n                                                                                                  \n q_attn_convattention_block  (None, 144, 204, 512)        262656    ['q_attnattention_block0[0][0]\n 0 (Conv2D)                                                         ']                            \n                                                                                                  \n upsampling_0 (UpSampling2D  (None, 144, 204, 1024)       0         ['activation_71[0][0]']       \n )                                                                                                \n                                                                                                  \n q_attn_bnattention_block0   (None, 144, 204, 512)        2048      ['q_attn_convattention_block0[\n (BatchNormalization)                                               0][0]']                       \n                                                                                                  \n concatenate_28 (Concatenat  (None, 144, 204, 1536)       0         ['upsampling_0[0][0]',        \n e)                                                                  'q_attn_bnattention_block0[0]\n                                                                    [0]']                         \n                                                                                                  \n conv2d_79 (Conv2D)          (None, 144, 204, 512)        7078400   ['concatenate_28[0][0]']      \n                                                                                                  \n batch_normalization_69 (Ba  (None, 144, 204, 512)        2048      ['conv2d_79[0][0]']           \n tchNormalization)                                                                                \n                                                                                                  \n activation_74 (Activation)  (None, 144, 204, 512)        0         ['batch_normalization_69[0][0]\n                                                                    ']                            \n                                                                                                  \n dropout_64 (Dropout)        (None, 144, 204, 512)        0         ['activation_74[0][0]']       \n                                                                                                  \n conv2d_80 (Conv2D)          (None, 144, 204, 512)        2359808   ['dropout_64[0][0]']          \n                                                                                                  \n conv2d_81 (Conv2D)          (None, 144, 204, 512)        786944    ['concatenate_28[0][0]']      \n                                                                                                  \n batch_normalization_70 (Ba  (None, 144, 204, 512)        2048      ['conv2d_80[0][0]']           \n tchNormalization)                                                                                \n                                                                                                  \n batch_normalization_71 (Ba  (None, 144, 204, 512)        2048      ['conv2d_81[0][0]']           \n tchNormalization)                                                                                \n                                                                                                  \n dropout_65 (Dropout)        (None, 144, 204, 512)        0         ['batch_normalization_70[0][0]\n                                                                    ']                            \n                                                                                                  \n add_10 (Add)                (None, 144, 204, 512)        0         ['batch_normalization_71[0][0]\n                                                                    ',                            \n                                                                     'dropout_65[0][0]']          \n                                                                                                  \n activation_75 (Activation)  (None, 144, 204, 512)        0         ['add_10[0][0]']              \n                                                                                                  \n gating_signal1_conv (Conv2  (None, 144, 204, 256)        131328    ['activation_75[0][0]']       \n D)                                                                                               \n                                                                                                  \n gating_signal1_bn (BatchNo  (None, 144, 204, 256)        1024      ['gating_signal1_conv[0][0]'] \n rmalization)                                                                                     \n                                                                                                  \n gating_signal1_act (Activa  (None, 144, 204, 256)        0         ['gating_signal1_bn[0][0]']   \n tion)                                                                                            \n                                                                                                  \n conv2d_82 (Conv2D)          (None, 144, 204, 256)        65792     ['gating_signal1_act[0][0]']  \n                                                                                                  \n g_upattention_block1 (Conv  (None, 144, 204, 256)        590080    ['conv2d_82[0][0]']           \n 2DTranspose)                                                                                     \n                                                                                                  \n xlattention_block1 (Conv2D  (None, 144, 204, 256)        262400    ['activation_67[0][0]']       \n )                                                                                                \n                                                                                                  \n add_11 (Add)                (None, 144, 204, 256)        0         ['g_upattention_block1[0][0]',\n                                                                     'xlattention_block1[0][0]']  \n                                                                                                  \n activation_76 (Activation)  (None, 144, 204, 256)        0         ['add_11[0][0]']              \n                                                                                                  \n psiattention_block1 (Conv2  (None, 144, 204, 1)          257       ['activation_76[0][0]']       \n D)                                                                                               \n                                                                                                  \n activation_77 (Activation)  (None, 144, 204, 1)          0         ['psiattention_block1[0][0]'] \n                                                                                                  \n up_sampling2d_5 (UpSamplin  (None, 288, 408, 1)          0         ['activation_77[0][0]']       \n g2D)                                                                                             \n                                                                                                  \n psi_upattention_block1 (La  (None, 288, 408, 256)        0         ['up_sampling2d_5[0][0]']     \n mbda)                                                                                            \n                                                                                                  \n q_attnattention_block1 (Mu  (None, 288, 408, 256)        0         ['psi_upattention_block1[0][0]\n ltiply)                                                            ',                            \n                                                                     'activation_67[0][0]']       \n                                                                                                  \n q_attn_convattention_block  (None, 288, 408, 256)        65792     ['q_attnattention_block1[0][0]\n 1 (Conv2D)                                                         ']                            \n                                                                                                  \n upsampling_1 (UpSampling2D  (None, 288, 408, 512)        0         ['activation_75[0][0]']       \n )                                                                                                \n                                                                                                  \n q_attn_bnattention_block1   (None, 288, 408, 256)        1024      ['q_attn_convattention_block1[\n (BatchNormalization)                                               0][0]']                       \n                                                                                                  \n concatenate_29 (Concatenat  (None, 288, 408, 768)        0         ['upsampling_1[0][0]',        \n e)                                                                  'q_attn_bnattention_block1[0]\n                                                                    [0]']                         \n                                                                                                  \n conv2d_83 (Conv2D)          (None, 288, 408, 256)        1769728   ['concatenate_29[0][0]']      \n                                                                                                  \n batch_normalization_72 (Ba  (None, 288, 408, 256)        1024      ['conv2d_83[0][0]']           \n tchNormalization)                                                                                \n                                                                                                  \n activation_78 (Activation)  (None, 288, 408, 256)        0         ['batch_normalization_72[0][0]\n                                                                    ']                            \n                                                                                                  \n dropout_66 (Dropout)        (None, 288, 408, 256)        0         ['activation_78[0][0]']       \n                                                                                                  \n conv2d_84 (Conv2D)          (None, 288, 408, 256)        590080    ['dropout_66[0][0]']          \n                                                                                                  \n conv2d_85 (Conv2D)          (None, 288, 408, 256)        196864    ['concatenate_29[0][0]']      \n                                                                                                  \n batch_normalization_73 (Ba  (None, 288, 408, 256)        1024      ['conv2d_84[0][0]']           \n tchNormalization)                                                                                \n                                                                                                  \n batch_normalization_74 (Ba  (None, 288, 408, 256)        1024      ['conv2d_85[0][0]']           \n tchNormalization)                                                                                \n                                                                                                  \n dropout_67 (Dropout)        (None, 288, 408, 256)        0         ['batch_normalization_73[0][0]\n                                                                    ']                            \n                                                                                                  \n add_12 (Add)                (None, 288, 408, 256)        0         ['batch_normalization_74[0][0]\n                                                                    ',                            \n                                                                     'dropout_67[0][0]']          \n                                                                                                  \n activation_79 (Activation)  (None, 288, 408, 256)        0         ['add_12[0][0]']              \n                                                                                                  \n gating_signal2_conv (Conv2  (None, 288, 408, 128)        32896     ['activation_79[0][0]']       \n D)                                                                                               \n                                                                                                  \n gating_signal2_bn (BatchNo  (None, 288, 408, 128)        512       ['gating_signal2_conv[0][0]'] \n rmalization)                                                                                     \n                                                                                                  \n gating_signal2_act (Activa  (None, 288, 408, 128)        0         ['gating_signal2_bn[0][0]']   \n tion)                                                                                            \n                                                                                                  \n conv2d_86 (Conv2D)          (None, 288, 408, 128)        16512     ['gating_signal2_act[0][0]']  \n                                                                                                  \n g_upattention_block2 (Conv  (None, 288, 408, 128)        147584    ['conv2d_86[0][0]']           \n 2DTranspose)                                                                                     \n                                                                                                  \n xlattention_block2 (Conv2D  (None, 288, 408, 128)        65664     ['activation_65[0][0]']       \n )                                                                                                \n                                                                                                  \n add_13 (Add)                (None, 288, 408, 128)        0         ['g_upattention_block2[0][0]',\n                                                                     'xlattention_block2[0][0]']  \n                                                                                                  \n activation_80 (Activation)  (None, 288, 408, 128)        0         ['add_13[0][0]']              \n                                                                                                  \n psiattention_block2 (Conv2  (None, 288, 408, 1)          129       ['activation_80[0][0]']       \n D)                                                                                               \n                                                                                                  \n activation_81 (Activation)  (None, 288, 408, 1)          0         ['psiattention_block2[0][0]'] \n                                                                                                  \n up_sampling2d_6 (UpSamplin  (None, 576, 816, 1)          0         ['activation_81[0][0]']       \n g2D)                                                                                             \n                                                                                                  \n psi_upattention_block2 (La  (None, 576, 816, 128)        0         ['up_sampling2d_6[0][0]']     \n mbda)                                                                                            \n                                                                                                  \n q_attnattention_block2 (Mu  (None, 576, 816, 128)        0         ['psi_upattention_block2[0][0]\n ltiply)                                                            ',                            \n                                                                     'activation_65[0][0]']       \n                                                                                                  \n q_attn_convattention_block  (None, 576, 816, 128)        16512     ['q_attnattention_block2[0][0]\n 2 (Conv2D)                                                         ']                            \n                                                                                                  \n upsampling_2 (UpSampling2D  (None, 576, 816, 256)        0         ['activation_79[0][0]']       \n )                                                                                                \n                                                                                                  \n q_attn_bnattention_block2   (None, 576, 816, 128)        512       ['q_attn_convattention_block2[\n (BatchNormalization)                                               0][0]']                       \n                                                                                                  \n concatenate_30 (Concatenat  (None, 576, 816, 384)        0         ['upsampling_2[0][0]',        \n e)                                                                  'q_attn_bnattention_block2[0]\n                                                                    [0]']                         \n                                                                                                  \n conv2d_87 (Conv2D)          (None, 576, 816, 128)        442496    ['concatenate_30[0][0]']      \n                                                                                                  \n batch_normalization_75 (Ba  (None, 576, 816, 128)        512       ['conv2d_87[0][0]']           \n tchNormalization)                                                                                \n                                                                                                  \n activation_82 (Activation)  (None, 576, 816, 128)        0         ['batch_normalization_75[0][0]\n                                                                    ']                            \n                                                                                                  \n dropout_68 (Dropout)        (None, 576, 816, 128)        0         ['activation_82[0][0]']       \n                                                                                                  \n conv2d_88 (Conv2D)          (None, 576, 816, 128)        147584    ['dropout_68[0][0]']          \n                                                                                                  \n conv2d_89 (Conv2D)          (None, 576, 816, 128)        49280     ['concatenate_30[0][0]']      \n                                                                                                  \n batch_normalization_76 (Ba  (None, 576, 816, 128)        512       ['conv2d_88[0][0]']           \n tchNormalization)                                                                                \n                                                                                                  \n batch_normalization_77 (Ba  (None, 576, 816, 128)        512       ['conv2d_89[0][0]']           \n tchNormalization)                                                                                \n                                                                                                  \n dropout_69 (Dropout)        (None, 576, 816, 128)        0         ['batch_normalization_76[0][0]\n                                                                    ']                            \n                                                                                                  \n add_14 (Add)                (None, 576, 816, 128)        0         ['batch_normalization_77[0][0]\n                                                                    ',                            \n                                                                     'dropout_69[0][0]']          \n                                                                                                  \n activation_83 (Activation)  (None, 576, 816, 128)        0         ['add_14[0][0]']              \n                                                                                                  \n gating_signal3_conv (Conv2  (None, 576, 816, 64)         8256      ['activation_83[0][0]']       \n D)                                                                                               \n                                                                                                  \n gating_signal3_bn (BatchNo  (None, 576, 816, 64)         256       ['gating_signal3_conv[0][0]'] \n rmalization)                                                                                     \n                                                                                                  \n gating_signal3_act (Activa  (None, 576, 816, 64)         0         ['gating_signal3_bn[0][0]']   \n tion)                                                                                            \n                                                                                                  \n conv2d_90 (Conv2D)          (None, 576, 816, 64)         4160      ['gating_signal3_act[0][0]']  \n                                                                                                  \n g_upattention_block3 (Conv  (None, 576, 816, 64)         36928     ['conv2d_90[0][0]']           \n 2DTranspose)                                                                                     \n                                                                                                  \n xlattention_block3 (Conv2D  (None, 576, 816, 64)         16448     ['activation_63[0][0]']       \n )                                                                                                \n                                                                                                  \n add_15 (Add)                (None, 576, 816, 64)         0         ['g_upattention_block3[0][0]',\n                                                                     'xlattention_block3[0][0]']  \n                                                                                                  \n activation_84 (Activation)  (None, 576, 816, 64)         0         ['add_15[0][0]']              \n                                                                                                  \n psiattention_block3 (Conv2  (None, 576, 816, 1)          65        ['activation_84[0][0]']       \n D)                                                                                               \n                                                                                                  \n activation_85 (Activation)  (None, 576, 816, 1)          0         ['psiattention_block3[0][0]'] \n                                                                                                  \n up_sampling2d_7 (UpSamplin  (None, 1152, 1632, 1)        0         ['activation_85[0][0]']       \n g2D)                                                                                             \n                                                                                                  \n psi_upattention_block3 (La  (None, 1152, 1632, 64)       0         ['up_sampling2d_7[0][0]']     \n mbda)                                                                                            \n                                                                                                  \n q_attnattention_block3 (Mu  (None, 1152, 1632, 64)       0         ['psi_upattention_block3[0][0]\n ltiply)                                                            ',                            \n                                                                     'activation_63[0][0]']       \n                                                                                                  \n q_attn_convattention_block  (None, 1152, 1632, 64)       4160      ['q_attnattention_block3[0][0]\n 3 (Conv2D)                                                         ']                            \n                                                                                                  \n upsampling_3 (UpSampling2D  (None, 1152, 1632, 128)      0         ['activation_83[0][0]']       \n )                                                                                                \n                                                                                                  \n q_attn_bnattention_block3   (None, 1152, 1632, 64)       256       ['q_attn_convattention_block3[\n (BatchNormalization)                                               0][0]']                       \n                                                                                                  \n concatenate_31 (Concatenat  (None, 1152, 1632, 192)      0         ['upsampling_3[0][0]',        \n e)                                                                  'q_attn_bnattention_block3[0]\n                                                                    [0]']                         \n                                                                                                  \n conv2d_91 (Conv2D)          (None, 1152, 1632, 64)       110656    ['concatenate_31[0][0]']      \n                                                                                                  \n batch_normalization_78 (Ba  (None, 1152, 1632, 64)       256       ['conv2d_91[0][0]']           \n tchNormalization)                                                                                \n                                                                                                  \n activation_86 (Activation)  (None, 1152, 1632, 64)       0         ['batch_normalization_78[0][0]\n                                                                    ']                            \n                                                                                                  \n dropout_70 (Dropout)        (None, 1152, 1632, 64)       0         ['activation_86[0][0]']       \n                                                                                                  \n conv2d_92 (Conv2D)          (None, 1152, 1632, 64)       36928     ['dropout_70[0][0]']          \n                                                                                                  \n conv2d_93 (Conv2D)          (None, 1152, 1632, 64)       12352     ['concatenate_31[0][0]']      \n                                                                                                  \n batch_normalization_79 (Ba  (None, 1152, 1632, 64)       256       ['conv2d_92[0][0]']           \n tchNormalization)                                                                                \n                                                                                                  \n batch_normalization_80 (Ba  (None, 1152, 1632, 64)       256       ['conv2d_93[0][0]']           \n tchNormalization)                                                                                \n                                                                                                  \n dropout_71 (Dropout)        (None, 1152, 1632, 64)       0         ['batch_normalization_79[0][0]\n                                                                    ']                            \n                                                                                                  \n add_16 (Add)                (None, 1152, 1632, 64)       0         ['batch_normalization_80[0][0]\n                                                                    ',                            \n                                                                     'dropout_71[0][0]']          \n                                                                                                  \n activation_87 (Activation)  (None, 1152, 1632, 64)       0         ['add_16[0][0]']              \n                                                                                                  \n conv2d_94 (Conv2D)          (None, 1152, 1632, 1)        65        ['activation_87[0][0]']       \n                                                                                                  \n==================================================================================================\nTotal params: 46052293 (175.68 MB)\nTrainable params: 46030789 (175.59 MB)\nNon-trainable params: 21504 (84.00 KB)\n__________________________________________________________________________________________________\nNone"
…
